converted_autoencoder_final_result_32.tflite (tflite, 20012 bytes, 10 tensors)

model_1/conv2d_7/Conv2D/ReadVariableOp f4 [16, 3, 3, 3]
00000000: 75cb f93d c706 c13e db0a 26be 1e5c e43d
00000010: d621 7d3e 8060 a43d 2184 913e 71fd a13e
00000020: d9d1 6bbe 78c2 5fbe 03bb 793e 541d a0be
00000030: 4b3b 86bd 3ead 3c3e 51fc 26be 5138 0bbd
00000040: 4e53 fe3d 202e 34be 7e27 22be 59f5 de3e
00000050: a3b8 d9be 9ebc 15be 4c76 c23c abb2 403e
00000060: 593e 57be 7d5f 7a3e 6cbc 233d 2856 63be
00000070: 7d1b 81be 4997 14be 33cd 44be 55e0 50be
00000080: 5b27 11be 6f0d 57be ad30 7dbe 3f1d 0dbe
00000090: 72db 67be 3e6f 31be a0b8 38be cf95 65be
000000a0: af21 50be 928f 22be 814c 93be a03e e6bd
000000b0: fb8e 2bbe 2460 2ebe 75e5 1cbe 07c3 47be
000000c0: 1150 1ebe 4867 2abe d094 62be fc83 23be
000000d0: 1bf6 4cbe fea0 7dbe bdd2 9bbe 7dbd 8c3e
000000e0: 8492 6fbd e7a6 29be e821 ac39 a5ec b2bd
000000f0: aabf a43c 84bb 2e3d 1b6b 27bb abd9 0ebf
00000100: 4760 263e b786 fe3d 2855 83be fd2c 5cbe
00000110: f7c9 143e 029b 343d 2cde 00be 50b7 d9bd
00000120: 09c6 ec3c 3b4d 70bd 0039 f4bc c809 563e
00000130: 7307 f8bd 23fc 38be 346d 823e d195 93bd
00000140: 5e5b 21be 023f a6bc 7419 1fbd 3fae b0bc
00000150: 02ce 2cbe 4795 67bc d5fa 2a3c 37dd 933c
00000160: 5f73 97bc ac7b de3b 5dde 70be fe84 013e
00000170: e412 e2bd 572b 8abd f7d6 5fbd a94a 84bd
00000180: 8f99 393e f40e 4ebe 6bfb e73c e6d8 83be
00000190: af6d 803d 492c 1bbd 8af1 22bc d53e 20bd
000001a0: 2c2d c4bd 4772 a23e f343 50be 015a b63c
000001b0: 314f 5ebe 9b1b 82bd 3836 34be 1e4d 22be
000001c0: deee 763e caf4 563d 65a1 0c3c a51c 0f3e
000001d0: d25f 013e 7b66 cdbd f469 20be 8c03 c1bd
000001e0: b219 4bbe be82 f63b 4496 bdbd 45f7 d1bc
000001f0: 98a8 03bd aec6 07be b0ab d43c 0534 c53d
00000200: e3df 27be d19d 97bd f0f4 bdbb bd2f e7bd
00000210: 286c bb3d 9b4e aabd 4a96 c0bd 2ea8 98be
00000220: 71cc 5abe 4212 dfbd 8f19 8dbe 6d04 9dbd
00000230: f009 12be c247 acbe 7c7f 043e a9b1 8cbd
00000240: 04fc 0fbd 9a03 8cbb aca1 27be c269 82bc
00000250: a4d3 9ebd 05d5 debd 3d1d 20bd f666 f7bd
00000260: 6274 5d3d cdd7 9dbc f86b a9bc 0368 89be
00000270: ac3d 08bd 7fe6 ca3c 2cc3 edbd 2dcc a83d
00000280: 9ff3 0dbe 08b7 0cbd 6919 603e 70f2 243d
00000290: 437a 59be 22bb 463d 4ce3 e03c 8d49 abbd
000002a0: 2fd8 053e e36e 523c fe4c 00be 6c01 66bd
000002b0: d13f 18be e7de a53d 376b 49be 4fbc 54bd
000002c0: fb03 933c b4f8 97be 0e9a 2ebd 3eb4 5d3c
000002d0: 7e4e 7bbd a267 ccbc 7c61 18be f979 56be
000002e0: 96bc 043d 235a 98bd ec9b f2bd 9b58 993d
000002f0: 2959 8dbe 127e 95bd 71d6 98bf fefa d03c
00000300: b0e6 433e 685a cdbe f1bb 303e 1f69 0c3f
00000310: d7f1 acbe e336 c43e f1b8 09bf cd04 a6bf
00000320: 6af7 0dbe 7e26 69be 1fca 0fbf 14f7 3b3e
00000330: 9bac ee3e da90 8fbe 3853 8f3d 4a03 053f
00000340: 1e1d 66bf e893 fabe c0fb a53d 7628 0fbf
00000350: fdf3 613e cf40 c63e d335 04bd ade2 2f3e
00000360: 1c5a c33c 03ea c6bc 2745 eabd d1b0 1c3d
00000370: c629 1b3d 0bbc 04bd 4b3c 393e fad6 c0bc
00000380: 13f4 77be 5593 893e 389c e43c 547e 2ebe
00000390: a8cf e53c 75bf 4fbe 3888 9e3d eaa1 0c3e
000003a0: 1224 b3bd b0cb dcbd 72c8 a23d 7388 673e
000003b0: 490f aebe 915b 8fbd c974 833c 9654 58bd
000003c0: 4184 163d 4466 47bc 5642 15be 6fe3 96be
000003d0: 0480 cf3e fc19 023e c38a 56be f9c7 7b3e
000003e0: 750e 1d3d f935 73be 18d5 493e 80a7 5b3d
000003f0: e50b b9bc cedb d03d e867 19bd 3744 2ebb
0.121970095 0.37700483 -0.16215079 0.111503825 0.24719939 0.080262184 0.2842112 0.31638673
-0.2302927 -0.21851528 0.24387746 -0.31272376 -0.06554278 0.18425462 -0.16307189 -0.033989254
0.12418233 -0.1759572 -0.15835378 0.4354656 -0.4252368 -0.14622733 0.023738049 0.18818156
-0.21019877 0.24450488 0.039974615 -0.22200835 -0.25216284 -0.14510836 -0.19218902 -0.20398076
-0.14175169 -0.21001218 -0.247256 -0.13780688 -0.22642305 -0.17327592 -0.18039179 -0.22420429
-0.2032535 -0.1587508 -0.28769305 -0.112424135 -0.16753761 -0.17028862 -0.15321906 -0.19507991
-0.1546023 -0.16640961 -0.2212708 -0.15968317 -0.20015757 -0.24768445 -0.30434218 0.27488318
-0.058489338 -0.16567574 0.0003283166 -0.087365426 0.020110924 0.042659298 -0.0025546018 -0.55800885
0.16247664 0.124280386 -0.25650907 -0.21501537 0.14530168 0.04409314 -0.12584752 -0.10630667
0.028903024 -0.058667403 -0.029812336 0.20902169 -0.12110796 -0.18064933 0.2547394 -0.072063096
-0.1575751 -0.020293716 -0.038842633 -0.021567462 -0.1687546 -0.014134712 0.01043578 0.01804982
-0.01848763 0.006789645 -0.23522325 0.12648389 -0.11038759 -0.06746548 -0.054648366 -0.06459553
0.18124984 -0.20122892 0.028318128 -0.25751418 0.062709205 -0.03788403 -0.009945283 -0.03912242
-0.09578928 0.31727812 -0.2033842 0.022259714 -0.21709897 -0.063529216 -0.17598808 -0.1584973
0.24114558 0.052479543 0.008583401 0.13975771 0.12634209 -0.10029312 -0.15665418 -0.09424505
-0.1983402 0.00752291 -0.092571765 -0.025630603 -0.032143205 -0.13259384 0.025960773 0.096290626
-0.16394 -0.07403148 -0.005797021 -0.11288402 0.091514885 -0.08315774 -0.09403665 -0.2981581
-0.2136705 -0.10892154 -0.27558562 -0.0766686 -0.14261603 -0.33648497 0.12939256 -0.068698235
-0.03515245 -0.0042728903 -0.16370267 -0.01591957 -0.07755211 -0.10880474 -0.039090384 -0.12080185
0.05406607 -0.01926794 -0.020681366 -0.26837167 -0.03326194 0.024768112 -0.11609492 0.082420684
-0.13862465 -0.03435424 0.21884693 0.04027027 -0.21238045 0.048518308 0.027452134 -0.08363638
0.13070749 0.01284382 -0.1252937 -0.0561537 -0.14868094 0.08099156 -0.19669805 -0.051937398
0.017946234 -0.29681933 -0.042627387 0.013531743 -0.061354153 -0.02495176 -0.14880937 -0.20944966
0.032406412 -0.07439067 -0.11846146 0.07487603 -0.27607086 -0.07299437 -1.1940442 0.025510307
0.19130969 -0.40108037 0.17259194 0.548479 -0.3377826 0.38323125 -0.53797823 -1.2970215
-0.13863912 -0.2276859 -0.5616779 0.18355972 0.46616063 -0.280402 0.069982946 0.51958144
-0.8988818 -0.4894097 0.08104658 -0.55921113 0.2206573 0.3872132 -0.032277893 0.17176314
0.023846678 -0.024281507 -0.11438971 0.038254563 0.037881635 -0.032405894 0.18089406 -0.023540009
-0.242142 0.26870218 0.027906522 -0.17040378 0.02805312 -0.20287879 0.077408254 0.1373364
-0.08747114 -0.10781038 0.07948388 0.22610645 -0.33996037 -0.06999887 0.016046898 -0.052815042
0.03674722 -0.012170378 -0.14576086 -0.29470393 0.40527356 0.12705225 -0.20951371 0.24588002
0.038343865 -0.23751058 0.19710195 0.053626537 -0.02258868 0.101981744 -0.03745261 -0.0026590952

model_1/conv2d_7/Conv2D_bias f4 [16]
00000000: 9d5b 54bf f285 b0be 0ef3 5dbe 46d4 0ebe
00000010: 9d7c 49be c7aa cdbc 5c8f 6ebd 3e20 443f
00000020: 163c ddbe e328 c1bf 6b97 cb3e 6ac0 8a3f
00000030: 4f18 843f 2e43 17bd 1b09 06be cf9b a4be
-0.8295229 -0.34477192 -0.2167475 -0.13948163 -0.19676442 -0.025105847 -0.058242187 0.766117
-0.43209904 -1.5090603 0.3976396 1.083997 1.0319918 -0.036929302 -0.13089411 -0.32150123

model_1/conv2d_8/Conv2D/ReadVariableOp f4 [8, 3, 3, 16]
00000000: 5992 0c3d 4043 aabe b05a ca3d f92d ab3d
00000010: d7c5 333e 3b4d 393e 3271 21be 5161 c93c
00000020: 76e0 84bd f515 123e 7e55 37be 14e3 4d3e
00000030: d69a 18bf aba0 da3d a89f f9bc 2a88 2abe
00000040: 96ff 333e f1e6 e2be a934 39bd 5e2a 883d
00000050: f4ad 5d3e d8b8 843e 7428 42be f519 cdbd
00000060: 4208 13be 5d34 233e ba22 d4bc b210 e93d
00000070: 6217 aa3d ab5d 553e aa36 a2bd fdc7 03bf
00000080: 07f1 e13d 52bf 4dbe aaa7 4cb9 656e ce3d
00000090: a807 5e3e 8325 8f3c 8a2b 5c3d 6ad0 023e
000000a0: d0c8 0abd 8770 503c fda9 823e 0ce4 2ebc
000000b0: b3ce 75be 74e3 533d 9355 ae3c 4e7f 99be
000000c0: 5476 20be ead4 f9bd bbf8 4d3d 24e4 85bd
000000d0: 0c88 6f3e 9265 5d3c 7495 b43d 88be 35bd
000000e0: 6c88 14be 6f0b 613d 8a41 c1be db56 b53c
000000f0: 4175 04bf 0662 c03d a3e6 b53d 8e84 c93d
00000100: fb74 dd3c d4c3 433e c77f c9bd 818b 43be
00000110: 3f87 5d3e d32e beba abdb c13c f820 38be
00000120: cbd0 f4bd e1a9 9a3d fbc7 8cbe 2249 bd3d
00000130: b12a 46be 5bf7 fa3d 1807 143e 6972 dfbd
00000140: e21b 343d 7f3a d93e 8e52 92bd 609e e43a
00000150: fde5 4a3b 31c8 1bbb 9d57 283e 3909 a93d
00000160: 8c19 af3d 5257 953d 92cc 2bbe ca2f 133d
00000170: be10 dfbc 6c60 4fbd 268c 833c 63b2 343e
00000180: dfb7 febd 7537 c4be 51f3 98bc 44d6 29bd
00000190: d09a c7bd a404 4f3e e5de 1e3d 198c b8bd
000001a0: bb88 c6bd 4739 923d 0df0 20be d20d c1bf
000001b0: 29dd 2040 6b31 02bd 0fe6 2dbd 9fcc c8bd
000001c0: a621 8bbe 773d 223e feda ed3c c0a4 13be
000001d0: 337f 9fbe d3b2 ce3d e5f9 b8bd 3852 683e
000001e0: 3a51 873e cb9c 1abc 6fc5 98be 9b0a 79be
000001f0: f2bb be3d 4220 bcba 648d 973c 74d6 d4bd
00000200: 8f6f 0c3d 0a6b 4bbe fb08 4ebd fcb0 4e3d
00000210: 7582 21be d975 1d3b 9155 01bd 13cd fb3c
00000220: 8074 87bd 1303 983d 0a01 6c3c b5fc 383e
00000230: 5131 b1be d279 fdbc 727c d43d 0671 8a3a
00000240: 4c6f 01be 1577 dd3c 1420 793d c658 08be
00000250: d621 08bf f56a 19be 3cb8 dbbe 2de9 f73e
00000260: 4c02 443e 252b 45be b3c8 0fbf e01e 0dc0
00000270: 78da 093f ff92 b43e 77c1 93be 4117 a1bd
00000280: a462 6a3d 1aa9 b3be 9177 aa3d ec56 8d3e
00000290: f9ba 19bf a23a 373e 66b0 bfbf 3659 293f
000002a0: f221 1dbf 01e6 59bd c821 223e f853 7bbf
000002b0: 2452 a8bf e84d 9abe 7ac9 dabe 5742 8bbe
000002c0: a098 7cbe ab5c 29be cb78 933e 8dd9 f03e
000002d0: 9b6b a3be 457c 30be d481 3bbf 4744 4a3f
000002e0: f107 aabd b085 17be 7513 43bd dab0 5fbe
000002f0: 1911 7dbe c9f1 b1bd 3377 443e 6469 f93b
00000300: 5e2d d9bd d9ca 113f 0086 9fbd 61fa ac3e
00000310: 6a54 1ebe 1646 e53e a7dd 3fbe fe1f 593e
00000320: d811 8b3e faac 84bb f5cd 043b 4bae 9dbf
00000330: d8c9 3b40 5aa1 933e 686a 83be 9845 cd3e
00000340: 12d3 a23d 4db8 993c b99f 303d 26c4 1d3e
00000350: 98a6 04bf 6306 243f a989 96be 951d 933f
00000360: 89e6 4c3d 2cae 6e3e 8f59 d7be 94ac 87bf
00000370: b8db 21be 11f7 7bbe 114a 0abf bb69 84bd
00000380: 71da a63e 3fa5 6bbf f651 3c3f c0b9 b2bb
00000390: a5f3 3fbe 705b 503e e82e a9bd 510c 2dbd
000003a0: 3ffd b23b 3c19 8b3d c904 8fbd 4625 b7be
000003b0: 0521 83be cc5e 99bc c1de a9be 4ac4 ddbd
000003c0: 6cb3 75be bfc9 013e 3d8c 89bd d6ba 8b3a
000003d0: 40e0 b3be 2c26 9fbd a64a 1dbe 437b 073e
000003e0: 53e6 853e 9f6c 94be dc25 04bf 9167 35bf
000003f0: 9fc0 ac3a 38fa 913e 5647 923d 8da5 c23d
0.034319256 -0.33254433 0.098805785 0.08358378 0.17555939 0.18095867 -0.15765837 0.024582537
-0.06488125 0.14266188 -0.17903706 0.20106155 -0.5961126 0.10675176 -0.030471638 -0.16653505
0.17577967 -0.4431682 -0.045216236 0.06648706 0.21648389 0.25922275 -0.18960744 -0.100147165
-0.14358619 0.15937944 -0.025895465 0.113801375 0.08305241 0.20836513 -0.079205826 -0.5147703
0.110323004 -0.20092514 -0.00019517416 0.1007965 0.21682608 0.017473942 0.05375246 0.12774816
-0.033882916 0.012722141 0.25520316 -0.010674488 -0.2400463 0.051730588 0.02128104 -0.29979938
-0.15670139 -0.12198813 0.050286036 -0.06537655 0.23391742 0.013512986 0.088175684 -0.044371158
-0.14505166 0.054942545 -0.37745315 0.022136142 -0.51741415 0.093936965 0.08881881 0.09839736
0.02703332 0.19117671 -0.09838825 -0.19096185 0.21633624 -0.0014509804 0.023664316 -0.17981327
-0.119538866 0.07551933 -0.27496323 0.092424646 -0.19352223 0.122542106 0.14455831 -0.10910494
0.043971904 0.4242744 -0.07144652 0.0017442219 0.0030959838 -0.0023770446 0.16439672 0.08253712
0.085497946 0.07292046 -0.16777256 0.035934247 -0.027229663 -0.050629064 0.016058039 0.17646174
-0.124374144 -0.3832356 -0.01867071 -0.041464105 -0.09746325 0.20216614 0.038786788 -0.090110965
-0.09694048 0.07139831 -0.15716572 -1.5082343 2.5134985 -0.03178541 -0.04245573 -0.098046534
-0.2717411 0.1584376 0.029035088 -0.14418316 -0.31151733 0.10092702 -0.090320386 0.22687614
0.26429158 -0.009436796 -0.2983813 -0.24320452 0.093131915 -0.0014352875 0.018500037 -0.10392466
0.034286078 -0.19865051 -0.050301533 0.050461754 -0.15772422 0.0024026542 -0.031575743 0.030737435
-0.066140175 0.07422461 0.014404545 0.1806515 -0.34607938 -0.030941878 0.103752986 0.0010562248
-0.12640113 0.027034322 0.060821608 -0.13315114 -0.5317663 -0.14982207 -0.42913997 0.48420087
0.19141501 -0.1925474 -0.5616562 -2.2050095 0.5384898 0.352684 -0.2885854 -0.078657635
0.057222977 -0.35089952 0.08323587 0.2760538 -0.6005092 0.1789346 -1.4975708 0.6615175
-0.6137992 -0.053197864 0.15833199 -0.98175 -1.3150067 -0.30137563 -0.4273184 -0.2719905
-0.24667597 -0.16539256 0.28803095 0.47040978 -0.31918034 -0.17234905 -0.73244977 0.7901043
-0.08302296 -0.14797091 -0.047625978 -0.21844807 -0.24713553 -0.08688695 0.19186096 0.0076114405
-0.10604356 0.56950146 -0.0778923 0.33784774 -0.15461889 0.44780034 -0.18736897 0.2120361
0.2716205 -0.0040489407 0.0020264362 -1.2318815 2.9341946 0.2883404 -0.2566712 0.40092158
0.07950415 0.01876464 0.043121073 0.15406856 -0.518167 0.64072245 -0.294019 1.1493403
0.050024543 0.23308629 -0.42060515 -1.0599542 -0.15806472 -0.24605967 -0.54019266 -0.06465479
0.32588533 -0.9204902 0.7356256 -0.005454272 -0.18745287 0.2034738 -0.082609 -0.042248074
0.005462318 0.067919225 -0.069833346 -0.35770625 -0.2561113 -0.01872196 -0.3317776 -0.10828455
-0.23994225 0.12674616 -0.067162015 0.001066054 -0.35132027 -0.077709526 -0.15360507 0.13230614
0.26152286 -0.2898912 -0.5162027 -0.70861155 0.0013179964 0.28511214 0.071425125 0.095042326

model_1/conv2d_8/Conv2D_bias f4 [8]
00000000: a8f3 08bf 01a9 14c0 3ab3 96be 64d7 47be
00000010: 17ea d0be ba55 6b3f e8bc 90be ad1f a3be
-0.5349679 -2.3228152 -0.29433614 -0.19515759 -0.40803596 0.91927683 -0.28269124 -0.31860104

model_1/conv2d_9/Conv2D/ReadVariableOp f4 [8, 3, 3, 8]
00000000: fbe9 85be a817 7f3c d959 19be dd4a a53e
00000010: 7262 a6bd 52fe 8d3d ef8a b8be 2a58 233e
00000020: 8a8b 88be f984 5dbf 080f cebd 29f8 893e
00000030: 1cca a0be 607e 433d e636 26be b895 173e
00000040: 689b 833e ef96 1dbf d0d0 fb3d 25b6 e53d
00000050: c8cb 60bd ec72 1c3d 6961 1fbe ae16 2fbc
00000060: 22c4 41bf 3d12 0bbf 6f75 76bd a25e c43d
00000070: 5d9b 873f 8e6f 983d b9bb c73d cf3d 223e
00000080: bca9 ff3f eb79 9d3e 6c36 89be e050 a6bd
00000090: f572 c33f b26e 683e 2f2f e13e b85c 343d
000000a0: 0dd1 dfbe 72a4 043e 5a13 ad3e 0f6b 843d
000000b0: 437e 2a3f 8fa0 35be 32ec e4bd 0c2f 81be
000000c0: fada 05bf 6e43 66bd 3ccb cc3e 50b5 c8be
000000d0: 9ed0 e13b b07b 6f3d 0e82 0c3f 4217 98be
000000e0: 632b 5dbf c692 443f 1dd0 84be 4abd 9e3d
000000f0: 6e91 0a3f 5c06 ff3d f587 61bd 4f74 96bf
00000100: ecc8 483c 6cbe 42bc 1a9a 1a3e 9d89 133e
00000110: 52cb 023f 7ede ddbd bf1b 8f3e 8fbd 263f
00000120: 9d6b f83e 0095 4c3e 72e6 473e 818d 5d3e
00000130: 2db4 a7bf c6a1 e3be a574 d63e f5a9 7a3e
00000140: 0d13 0c3f 49f2 053f 1a8f 82bc a195 ec3d
00000150: 924e 2ebf 46ff 3abe 8f57 94be 6172 4e3f
00000160: 89a5 a0bd b6a0 26be ca61 73be 0a0a f8bd
00000170: 92f7 48be 9633 6dbe da61 b8be 70e5 b93e
00000180: a00c b0bd 742c 0a3f 4c80 163d 66a7 983e
00000190: 3682 a3be 7b7e d63e 2e9e 723e 1949 46be
000001a0: 862b 0cbf 67d0 a43e cc6a 8e3e 2763 7f3c
000001b0: 9cdd 153e 889b 543e c7db 9ebe 9f77 5b3c
000001c0: 6093 0abe d3e1 81bd 4071 9939 26dd 91be
000001d0: b72d 003e c04d 5e3c 9196 1ebe 1902 143e
000001e0: 909f 673e 70ba ad3e 144c 403e 901d 043e
000001f0: 99d9 763e cf55 cdbc c51b 243e da99 c9be
00000200: f678 b73d d122 283d d942 b4bc 757e d5bd
00000210: da61 183f 3f93 173e dae2 5c3e 3abc 953c
00000220: dbc1 643d 337b 88be d6d6 6ebd 150f 4bbe
00000230: 746f b73c 93c6 a2be d902 df3d 62b8 f93c
00000240: 3b87 283e 9187 90be d6db 36be 1008 063e
00000250: dad1 96bd d804 4fbe 88e6 8fbe 2d66 983d
00000260: 8715 c53e 5762 333d fd59 363e c10b 0abc
00000270: 16dd dbbe 7627 38bd b60b f3be 73bb 3dbd
00000280: 47a1 c93e 50c6 ce3e 56fc 8f3e bf6f db3e
00000290: 0f87 a3be a2ba 4abc 7ea4 ed3e 691d 033d
000002a0: 3f1b 58bd e0ef 93be 6ab4 3fbf 8f6d 93bd
000002b0: 35ce 08be 9572 40be 5df6 0bbf b312 073e
000002c0: c664 e33d 3cca c3be 81a0 0cbf bf6d 1fbf
000002d0: 6b00 3cbf c182 05bf 65c4 1ebf 2d98 6e3e
000002e0: f435 29bf d63e b2be b382 3b3d b2ca 03bf
000002f0: 06c3 093d c94e 47bf d711 06bf 1bef e53e
00000300: dec5 933e 38be 133f 2316 d93d 744d 7f3d
00000310: a72b e23d 5c04 ef3e 9372 6bbe 4a57 1ebd
00000320: ef48 88bf 55f7 0c3e 4d4d 8dbe 591e 84be
00000330: 62b3 31be 8c13 293f c724 913f 743c 3e3d
00000340: 09b7 6dbf 02d5 513e b231 0ebf 90a2 05be
00000350: 5ef6 a43e 9cdd a13e 52da 213e f33b 2f3e
00000360: b0cb c13f 154e 433f 4916 ea3d b098 703c
00000370: 593a bd3e 2cf9 333e 22a7 9cbd 0342 c93d
00000380: b874 e0bd a30d 8a3e e705 9f3e 3cc4 75bd
00000390: 82a1 813e 9bb5 35bf 2bcb b2bd 45cc f2bc
000003a0: 1368 2bbf 770d c8be 9cc8 863d 4793 bb3d
000003b0: e5de 4e3e 5f87 7a3e 13d2 9b3b b397 633d
000003c0: c825 95be 27e1 433f 4b75 26be 169f 20be
000003d0: 12aa 403e d65a 49be fd34 aa3d 4a46 55bc
000003e0: ebcd db3c 7a6c a7bd fc5d e9be 846e 0abe
000003f0: 5127 203f d655 74be c205 543e b982 d83e
-0.26155075 0.015569605 -0.1497568 0.3228368 -0.08124246 0.069332734 -0.36043498 0.159516
-0.2666896 -0.86531025 -0.10061461 0.26947144 -0.31404197 0.047727942 -0.1623188 0.14803207
0.25704503 -0.6155843 0.12295687 0.11216382 -0.05488184 0.038195536 -0.15564503 -0.01068656
-0.756899 -0.54324704 -0.060170587 0.09588362 1.0594288 0.07443152 0.09752602 0.1584389
1.9973674 0.3075708 -0.26799333 -0.081208944 1.5269457 0.22698477 0.4398131 0.044033736
-0.4371418 0.12953356 0.33803827 0.06465732 0.6659891 -0.1773703 -0.11177863 -0.25231206
-0.52287257 -0.05621665 0.39998806 -0.3920083 0.006891324 0.058467567 0.5488595 -0.29705244
-0.8639433 0.7678646 -0.25940028 0.07750948 0.5412816 0.12452385 -0.0550613 -1.1754245
0.012254935 -0.01188622 0.15097848 0.14407964 0.5109149 -0.10833453 0.27950856 0.65132993
0.48519602 0.19978714 0.19521502 0.2163601 -1.310186 -0.4445936 0.41885868 0.24478896
0.5471657 0.5232282 -0.015937377 0.11551977 -0.6808864 -0.18261442 -0.28973052 0.8064328
-0.07844073 -0.16272244 -0.23767772 -0.1211129 -0.1962569 -0.2316421 -0.36012155 0.3630786
-0.08596158 0.5397408 0.036743447 0.29815215 -0.3193528 0.41893372 0.23693153 -0.19363822
-0.5475391 0.32190248 0.27815855 0.015587605 0.14635319 0.20762455 -0.31027052 0.013395219
-0.13532782 -0.06341901 0.00029266812 -0.28489035 0.12517439 0.013568342 -0.15487124 0.14453925
0.22619462 0.33931303 0.18779022 0.12901902 0.24106444 -0.02506533 0.16026218 -0.39375192
0.08958618 0.04104883 -0.022004532 -0.104245104 0.5952431 0.14802264 0.21570912 0.01827823
0.055848937 -0.26656494 -0.058310352 -0.19829972 0.022392012 -0.31792125 0.10889215 0.030483428
0.16457836 -0.2822843 -0.17857298 0.13089013 -0.07364245 -0.20216691 -0.2810557 0.074413635
0.38492987 0.043794956 0.17807765 -0.008425654 -0.42942113 -0.044959508 -0.47469872 -0.046321344
0.39380857 0.40385675 0.28122205 0.42858693 -0.3193898 -0.012373598 0.4641456 0.03201047
-0.05276036 -0.28893948 -0.74884665 -0.07198631 -0.13359912 -0.1879371 -0.54672796 0.13190727
0.111032054 -0.3824023 -0.5493241 -0.62276834 -0.7343814 -0.5215264 -0.62018424 0.23300238
-0.6609795 -0.34813565 0.04577894 -0.51481164 0.033633254 -0.7785459 -0.5237097 0.44908985
0.28861898 0.57712126 0.10599925 0.062329724 0.11043482 0.46683013 -0.22992925 -0.038657464
-1.0647258 0.13766225 -0.27598038 -0.25804403 -0.17353585 0.6604545 1.1339349 0.04644437
-0.92857414 0.20491412 -0.5554458 -0.13050294 0.32219213 0.31614387 0.15805939 0.17112713
1.5140285 0.7629102 0.11430032 0.014684841 0.36958578 0.1757552 -0.076490656 0.09827044
-0.10959762 0.2696353 0.3105919 -0.060001597 0.25318533 -0.7098023 -0.087301575 -0.029638419
-0.6695568 -0.39072773 0.06581232 0.0915895 0.20202215 0.24465702 0.0047552674 0.055564594
-0.29130387 0.7651543 -0.16255681 -0.15685686 0.18814877 -0.19663557 0.08310888 -0.0130172465
0.026831588 -0.08174987 -0.45579517 -0.13518721 0.6255999 -0.23860869 0.20705321 0.42287233

model_1/conv2d_9/Conv2D_bias f4 [8]
00000000: 4b6a f7bf e268 e3bf 740d fd3e e508 75bf
00000010: 35a4 053f 919a 6a3d 16bd babd 9259 2ebf
-1.9329313 -1.7766383 0.49424326 -0.95716697 0.52203685 0.057276312 -0.091180965 -0.68105423

model_1/dense/MatMul/ReadVariableOp/transpose f4 [16, 128]
00000000: 1967 a2bd 06b2 f13c c6cb 99bd d07c c6bd
00000010: a030 c0bd 30d5 f93d 45c1 c7bc d0a2 19be
00000020: 29a4 43bd 6893 86bd e84f 24be 75c6 93be
00000030: 4a96 573e 92fb c8be 4df1 353d 0bfc 8ebe
00000040: 2568 afbe bb06 a2bd 5432 aa3d 587b 36be
00000050: 95c6 84bd 0aef 9dbe 22be a33e c009 0bbe
00000060: dc2b 86be 5e52 97bd fca5 813c b043 38be
00000070: ffc7 4b3e d3ad 0cbe ef92 ab3e 2df3 143d
00000080: 18d0 33be ae99 18bd ecee b3bd ce3a 4bbd
00000090: 0a7e 64be ea6d 4f3e 7360 643e b785 63bd
000000a0: 27bd 6bbf b47d 9ebe f1dd 193d 67bb b63d
000000b0: 2788 d5be a3c4 353e 4833 7f3e 9984 043f
000000c0: 5dbd 49bf 686b f0bd 4074 0e3f 4a49 15bf
000000d0: 72b3 01bf 71df 13be 7775 e43e 7720 2cbe
000000e0: d799 12bf 9596 0ebe ea9b 803e e8ca a1be
000000f0: 92c5 80bd 0f8e 9ebe df87 f33e efca 7bbd
00000100: 72d5 843c 1058 7abd 0c83 163c a32d 9abe
00000110: 0e66 d23d d241 ca3d d9f5 1a3d 9a95 9fbe
00000120: c119 09bf 0ca5 9ebe dec9 fdbc 20e9 ce3d
00000130: ccf0 623d a276 96bd dc5c 053e 8fc5 b13d
00000140: 7ff6 38be 46b2 1fbf f92a e33d 8b45 34bf
00000150: ed64 b8be f7a3 0d3e ecb8 c0bd 6220 1dbd
00000160: 939f 88be 560a 2dbe a08c ae3e 783c 28be
00000170: 772f d63d c5d1 553e 745b 833d 93e4 90be
00000180: 18c4 c5bd eae5 6bbe 8616 1ebd 2444 86be
00000190: 06d9 193d 8ebd 6bbe ee7b 033e 573d f83c
000001a0: 10d1 a1bd bb84 263e f0d3 133e 82d0 42be
000001b0: f6a6 8d3e 7695 40bd 9bef a9bc 3323 a33e
000001c0: d0e8 38bd e1de a8be 398d 61be c100 dbbe
000001d0: 6880 ee3d 389c 4a3e ac16 8bbc 7556 ecbb
000001e0: 1882 7d3e 41ae 51be 1f50 543e 024e 19be
000001f0: e1ad 2d3d 9325 403e 2073 df3d 6855 9fbe
00000200: c541 0ebf 4607 c7bd e9ab 6ebd dcc6 84be
00000210: 19bc a13e 3fd5 1b3e bc36 abbe d0d3 00be
00000220: e1b8 77be cc8b 4ebd 876f bfbd 4c7c 4d3e
00000230: 9ee6 433d be9d 8dbe 190b 8abe d7d5 60bd
00000240: 6d2b 323f 9193 13be 10c2 00be 2161 b8be
00000250: a7cf 85be 2030 af3c bf43 b7be 1009 443e
00000260: 53ce 7c3e 3899 90be 551c 2f3e 3205 38bd
00000270: 6765 d63e 3e4b 8ebe f0a2 b7bd b7ec b7be
00000280: cf21 0abd 2106 eabd 2cbc 15bd ae16 763e
00000290: e160 41be 42aa e23d 08fe 253d b16f 553e
000002a0: 695b 67bf b7b0 513d 5a6e 48bd 8835 213e
000002b0: 6bcc 2f3c 0157 c13c b516 3f3d 488d 333e
000002c0: 4075 97bf 9873 a83c 86e9 3e3f 8f53 0dbf
000002d0: ed80 4dbf c5a0 08bf 0eaf 7b3e f97e 4abd
000002e0: 714f 1ebe e3f0 c13d 3164 cd3e cea1 09be
000002f0: 9808 c0bd 93fc 23bf 4abd 1d3e 73d4 e83d
00000300: 8b37 babc c7ae 10be 84b6 fd3e 17c1 c33e
00000310: 7fe3 d0bd b477 1b3e 76e6 e1be b4cf 0abf
00000320: d0c7 36bf 9b4c c6be fbb7 1bbf bad1 cb3b
00000330: 2d63 843e 25cc 12bf d302 40bf 8f81 02bf
00000340: 65f0 17bf 58fa 42bf 6537 973e e37b 96bf
00000350: 3d5d 94be 771b cdbe 1b60 7dbf ee1f 21be
00000360: db1b 32be 6afe febd ebbd b23c edfc 9dbe
00000370: 57c1 b6bd 8a52 10bd 76dd d1be a5a9 79be
00000380: 1ae8 4c3e c528 19be 71b2 103e 388f b4be
00000390: bb29 b9be fece f6bd ab3a 6cbe f091 eebd
000003a0: 0fdc 5fbe aac3 ca3d bfe3 cbbd 8243 b23c
000003b0: 4a1b dabd 076a b4bd 187b 523d dd5d dcbd
000003c0: 5edc 1ebe d924 dcbe 5d96 3dbe d924 cabd
000003d0: a50a 92be 2afb fcbb 5eab 35be 63b4 a5bd
000003e0: f463 f3bd c5ba 11be 9795 cebd c016 87be
000003f0: aa8b e7be 3357 0d3e a671 c7bd cb1b 05be
-0.079298206 0.029503834 -0.0750957 -0.09691775 -0.093842745 0.121988654 -0.02438415 -0.15003514
-0.047763977 -0.06571084 -0.16046107 -0.28862348 0.21053424 -0.39254433 0.044419575 -0.2792667
-0.34259143 -0.0791144 0.083103806 -0.1782049 -0.06483189 -0.30846435 0.31980997 -0.13577938
-0.26205337 -0.07388757 0.015826218 -0.1799457 0.19900511 -0.13738184 0.3351054 0.036364723
-0.1755985 -0.037255935 -0.08785805 -0.049616627 -0.22313705 0.20256773 0.22302417 -0.055547442
-0.920855 -0.3095528 0.037565175 0.08922463 -0.41705438 0.17750792 0.24921906 0.5176483
-0.7880457 -0.11739236 0.55646133 -0.58314955 -0.50664437 -0.14440705 0.4462087 -0.1680926
-0.5726599 -0.1392463 0.25118953 -0.31600118 -0.062876835 -0.30967757 0.475646 -0.06147283
0.01621506 -0.06111914 0.009186517 -0.30112943 0.10273372 0.098758355 0.037832115 -0.31168824
-0.5355492 -0.30985296 -0.030980047 0.10103059 0.055405423 -0.07346846 0.13023704 0.086802594
-0.18062781 -0.623814 0.11092181 -0.70418614 -0.360145 0.13832079 -0.09410271 -0.03836096
-0.26684245 -0.16898474 0.34091663 -0.16429317 0.10458272 0.20880802 0.06413928 -0.28299388
-0.096565425 -0.23036924 -0.0385957 -0.26223862 0.037560485 -0.23021528 0.12840244 0.030302687
-0.07901204 0.1626157 0.14436316 -0.19024852 0.27666444 -0.047017537 -0.020744136 0.31862792
-0.045143902 -0.32982543 -0.22026528 -0.42774013 0.11645585 0.19786155 -0.016978584 -0.007212455
0.24756658 -0.20476629 0.20733689 -0.14971164 0.042402152 0.18764333 0.1091063 -0.31119847
-0.55569106 -0.09718184 -0.058269415 -0.25932968 0.3158882 0.15218066 -0.33440197 -0.125808
-0.2419162 -0.05042629 -0.09347444 0.20066947 0.047827356 -0.2765941 -0.26961592 -0.054891434
0.6959751 -0.14411761 -0.12574029 -0.36011603 -0.2613499 0.021385252 -0.35793874 0.19144082
0.24688081 -0.28241897 0.17100652 -0.04492683 0.4187424 -0.2779178 -0.08966625 -0.35922787
-0.03372365 -0.1142695 -0.036556408 0.24032089 -0.18884613 0.1106763 0.040525466 0.20843388
-0.90373856 0.05119392 -0.048933364 0.15743077 0.010729889 0.023601057 0.046652514 0.17534363
-1.1832657 0.020562932 0.7457508 -0.55205625 -0.8027485 -0.53370315 0.24578497 -0.049437497
-0.15459992 0.094697736 0.40115502 -0.1344063 -0.09376639 -0.6405727 0.1540424 0.113686465
-0.022731563 -0.14129172 0.4955331 0.38233253 -0.101996414 0.15182382 -0.4412114 -0.5422318
-0.7139864 -0.3873032 -0.60827607 0.0062200697 0.25856915 -0.5734275 -0.7500431 -0.5097894
-0.5935119 -0.76163244 0.2953445 -1.1756557 -0.28977385 -0.40060017 -0.9897477 -0.15734836
-0.17393439 -0.124508694 0.021819076 -0.3085703 -0.089235954 -0.035234965 -0.40989274 -0.2438112
0.20010415 -0.14956959 0.1413057 -0.35265517 -0.3616465 -0.120511994 -0.23069255 -0.11648929
-0.2186129 0.09900601 -0.099555485 0.021760706 -0.10649736 -0.088092856 0.051386923 -0.107600905
-0.15513751 -0.42996863 -0.1851439 -0.098703094 -0.28523746 -0.007720371 -0.17741153 -0.08091047
-0.11884299 -0.14231403 -0.10087126 -0.26384544 -0.45223743 0.13802795 -0.097384736 -0.12998883

model_1/dense/MatMul_bias f4 [16]
00000000: f8b9 9c3e 0367 2bbf eafa 233f 7103 e2bd
00000010: 8b4c 5abe 768f 46be f323 cb3f d7d6 d93f
00000020: daec 003e 6b9d 84be e459 63be bed9 943d
00000030: 2f62 edbd 8a5e 0ebf d15d 863e 39c8 15bf
0.30610633 -0.6695406 0.6405474 -0.11035813 -0.21318261 -0.19390664 1.5870346 1.7018689
0.12590352 -0.2590135 -0.2220226 0.072680935 -0.11590993 -0.55613005 0.2624345 -0.5850864

model_1/dense_1/MatMul/ReadVariableOp/transpose f4 [2, 16]
00000000: 561e 2c3e 9bbd 433e 7b19 3a3f 1022 f6bd
00000010: 5110 573e b451 16be b138 2b3f 4c26 4e3f
00000020: 4ad8 523d 689e a6be 25d1 213f 8fc2 133e
00000030: 24d3 14bf 7670 1e3e d805 f7be 1228 94be
00000040: 9783 7abe 4ba1 d3be da2e bebe 2ab7 a83e
00000050: 6412 ecbe e226 983e 5673 5f3a 46d3 0ebf
00000060: 3897 0ebf 246f 333e 0ef0 d0bb d798 ebbe
00000070: bb80 edbc 0527 8dbe 5212 9b3d 3bbb a43e
0.16808447 0.19115297 0.7269513 -0.12018216 0.21002318 -0.14679605 0.6688338 0.80527186
0.0514758 -0.3254273 0.63209754 0.14429687 -0.58134675 0.15472588 -0.48246646 -0.2893682
-0.2446426 -0.41333994 -0.3714512 0.32952243 -0.4610778 0.29717165 0.00085239613 -0.5579113
-0.5569949 0.17522866 -0.006376273 -0.46015045 -0.028992048 -0.27568832 0.07571854 0.32174096

model_1/dense_1/MatMul_bias f4 [2]
00000000: 1443 153f 5642 15bf
0.5830548 -0.58304346
